{"format": "torch", "nodes": [{"name": "shared", "id": 140119601167056, "class_name": "Embedding(250100, 512)", "parameters": [["weight", [250100, 512]]], "output_shape": [[1, 26, 512]], "num_parameters": [128051200]}, {"name": "encoder", "id": 140119831008272, "class_name": "T5Stack(\n  (embed_tokens): Embedding(250100, 512)\n  (block): ModuleList(\n    (0): T5Block(\n      (layer): ModuleList(\n        (0): T5LayerSelfAttention(\n          (SelfAttention): T5Attention(\n            (q): Linear(in_features=512, out_features=384, bias=False)\n            (k): Linear(in_features=512, out_features=384, bias=False)\n            (v): Linear(in_features=512, out_features=384, bias=False)\n            (o): Linear(in_features=384, out_features=512, bias=False)\n            (relative_attention_bias): Embedding(32, 6)\n          )\n          (layer_norm): T5LayerNorm()\n          (dropout): Dropout(p=0.1, inplace=False)\n        )\n        (1): T5LayerFF(\n          (DenseReluDense): T5DenseGatedGeluDense(\n            (wi_0): Linear(in_features=512, out_features=1024, bias=False)\n            (wi_1): Linear(in_features=512, out_features=1024, bias=False)\n            (wo): Linear(in_features=1024, out_features=512, bias=False)\n            (dropout): Dropout(p=0.1, inplace=False)\n          )\n          (layer_norm): T5LayerNorm()\n          (dropout): Dropout(p=0.1, inplace=False)\n        )\n      )\n    )\n    (1): T5Block(\n      (layer): ModuleList(\n        (0): T5LayerSelfAttention(\n          (SelfAttention): T5Attention(\n            (q): Linear(in_features=512, out_features=384, bias=False)\n            (k): Linear(in_features=512, out_features=384, bias=False)\n            (v): Linear(in_features=512, out_features=384, bias=False)\n            (o): Linear(in_features=384, out_features=512, bias=False)\n          )\n          (layer_norm): T5LayerNorm()\n          (dropout): Dropout(p=0.1, inplace=False)\n        )\n        (1): T5LayerFF(\n          (DenseReluDense): T5DenseGatedGeluDense(\n            (wi_0): Linear(in_features=512, out_features=1024, bias=False)\n            (wi_1): Linear(in_features=512, out_features=1024, bias=False)\n            (wo): Linear(in_features=1024, out_features=512, bias=False)\n            (dropout): Dropout(p=0.1, inplace=False)\n          )\n          (layer_norm): T5LayerNorm()\n          (dropout): Dropout(p=0.1, inplace=False)\n        )\n      )\n    )\n    (2): T5Block(\n      (layer): ModuleList(\n        (0): T5LayerSelfAttention(\n          (SelfAttention): T5Attention(\n            (q): Linear(in_features=512, out_features=384, bias=False)\n            (k): Linear(in_features=512, out_features=384, bias=False)\n            (v): Linear(in_features=512, out_features=384, bias=False)\n            (o): Linear(in_features=384, out_features=512, bias=False)\n          )\n          (layer_norm): T5LayerNorm()\n          (dropout): Dropout(p=0.1, inplace=False)\n        )\n        (1): T5LayerFF(\n          (DenseReluDense): T5DenseGatedGeluDense(\n            (wi_0): Linear(in_features=512, out_features=1024, bias=False)\n            (wi_1): Linear(in_features=512, out_features=1024, bias=False)\n            (wo): Linear(in_features=1024, out_features=512, bias=False)\n            (dropout): Dropout(p=0.1, inplace=False)\n          )\n          (layer_norm): T5LayerNorm()\n          (dropout): Dropout(p=0.1, inplace=False)\n        )\n      )\n    )\n    (3): T5Block(\n      (layer): ModuleList(\n        (0): T5LayerSelfAttention(\n          (SelfAttention): T5Attention(\n            (q): Linear(in_features=512, out_features=384, bias=False)\n            (k): Linear(in_features=512, out_features=384, bias=False)\n            (v): Linear(in_features=512, out_features=384, bias=False)\n            (o): Linear(in_features=384, out_features=512, bias=False)\n          )\n          (layer_norm): T5LayerNorm()\n          (dropout): Dropout(p=0.1, inplace=False)\n        )\n        (1): T5LayerFF(\n          (DenseReluDense): T5DenseGatedGeluDense(\n            (wi_0): Linear(in_features=512, out_features=1024, bias=False)\n            (wi_1): Linear(in_features=512, out_features=1024, bias=False)\n            (wo): Linear(in_features=1024, out_features=512, bias=False)\n            (dropout): Dropout(p=0.1, inplace=False)\n          )\n          (layer_norm): T5LayerNorm()\n          (dropout): Dropout(p=0.1, inplace=False)\n        )\n      )\n    )\n    (4): T5Block(\n      (layer): ModuleList(\n        (0): T5LayerSelfAttention(\n          (SelfAttention): T5Attention(\n            (q): Linear(in_features=512, out_features=384, bias=False)\n            (k): Linear(in_features=512, out_features=384, bias=False)\n            (v): Linear(in_features=512, out_features=384, bias=False)\n            (o): Linear(in_features=384, out_features=512, bias=False)\n          )\n          (layer_norm): T5LayerNorm()\n          (dropout): Dropout(p=0.1, inplace=False)\n        )\n        (1): T5LayerFF(\n          (DenseReluDense): T5DenseGatedGeluDense(\n            (wi_0): Linear(in_features=512, out_features=1024, bias=False)\n            (wi_1): Linear(in_features=512, out_features=1024, bias=False)\n            (wo): Linear(in_features=1024, out_features=512, bias=False)\n            (dropout): Dropout(p=0.1, inplace=False)\n          )\n          (layer_norm): T5LayerNorm()\n          (dropout): Dropout(p=0.1, inplace=False)\n        )\n      )\n    )\n    (5): T5Block(\n      (layer): ModuleList(\n        (0): T5LayerSelfAttention(\n          (SelfAttention): T5Attention(\n            (q): Linear(in_features=512, out_features=384, bias=False)\n            (k): Linear(in_features=512, out_features=384, bias=False)\n            (v): Linear(in_features=512, out_features=384, bias=False)\n            (o): Linear(in_features=384, out_features=512, bias=False)\n          )\n          (layer_norm): T5LayerNorm()\n          (dropout): Dropout(p=0.1, inplace=False)\n        )\n        (1): T5LayerFF(\n          (DenseReluDense): T5DenseGatedGeluDense(\n            (wi_0): Linear(in_features=512, out_features=1024, bias=False)\n            (wi_1): Linear(in_features=512, out_features=1024, bias=False)\n            (wo): Linear(in_features=1024, out_features=512, bias=False)\n            (dropout): Dropout(p=0.1, inplace=False)\n          )\n          (layer_norm): T5LayerNorm()\n          (dropout): Dropout(p=0.1, inplace=False)\n        )\n      )\n    )\n    (6): T5Block(\n      (layer): ModuleList(\n        (0): T5LayerSelfAttention(\n          (SelfAttention): T5Attention(\n            (q): Linear(in_features=512, out_features=384, bias=False)\n            (k): Linear(in_features=512, out_features=384, bias=False)\n            (v): Linear(in_features=512, out_features=384, bias=False)\n            (o): Linear(in_features=384, out_features=512, bias=False)\n          )\n          (layer_norm): T5LayerNorm()\n          (dropout): Dropout(p=0.1, inplace=False)\n        )\n        (1): T5LayerFF(\n          (DenseReluDense): T5DenseGatedGeluDense(\n            (wi_0): Linear(in_features=512, out_features=1024, bias=False)\n            (wi_1): Linear(in_features=512, out_features=1024, bias=False)\n            (wo): Linear(in_features=1024, out_features=512, bias=False)\n            (dropout): Dropout(p=0.1, inplace=False)\n          )\n          (layer_norm): T5LayerNorm()\n          (dropout): Dropout(p=0.1, inplace=False)\n        )\n      )\n    )\n    (7): T5Block(\n      (layer): ModuleList(\n        (0): T5LayerSelfAttention(\n          (SelfAttention): T5Attention(\n            (q): Linear(in_features=512, out_features=384, bias=False)\n            (k): Linear(in_features=512, out_features=384, bias=False)\n            (v): Linear(in_features=512, out_features=384, bias=False)\n            (o): Linear(in_features=384, out_features=512, bias=False)\n          )\n          (layer_norm): T5LayerNorm()\n          (dropout): Dropout(p=0.1, inplace=False)\n        )\n        (1): T5LayerFF(\n          (DenseReluDense): T5DenseGatedGeluDense(\n            (wi_0): Linear(in_features=512, out_features=1024, bias=False)\n            (wi_1): Linear(in_features=512, out_features=1024, bias=False)\n            (wo): Linear(in_features=1024, out_features=512, bias=False)\n            (dropout): Dropout(p=0.1, inplace=False)\n          )\n          (layer_norm): T5LayerNorm()\n          (dropout): Dropout(p=0.1, inplace=False)\n        )\n      )\n    )\n  )\n  (final_layer_norm): T5LayerNorm()\n  (dropout): Dropout(p=0.1, inplace=False)\n)", "parameters": [["embed_tokens.weight", [250100, 512]], ["block.0.layer.0.Sel
…
 196608, 192, 512, 524288, 524288, 524288, 512, 196608, 196608, 196608, 196608, 512, 524288, 524288, 524288, 512, 196608, 196608, 196608, 196608, 512, 524288, 524288, 524288, 512, 196608, 196608, 196608, 196608, 512, 524288, 524288, 524288, 512, 196608, 196608, 196608, 196608, 512, 524288, 524288, 524288, 512, 196608, 196608, 196608, 196608, 512, 524288, 524288, 524288, 512, 196608, 196608, 196608, 196608, 512, 524288, 524288, 524288, 512, 196608, 196608, 196608, 196608, 512, 524288, 524288, 524288, 512, 512]}, {"name": "decoder", "id": 140119831010512, "class_name": "T5Stack(\n  (embed_tokens): Embedding(250100, 512)\n  (block): ModuleList(\n    (0): T5Block(\n      (layer): ModuleList(\n        (0): T5LayerSelfAttention(\n          (SelfAttention): T5Attention(\n            (q): Linear(in_features=512, out_features=384, bias=False)\n            (k): Linear(in_features=512, out_features=384, bias=False)\n            (v): Linear(in_features=512, out_features=384, bias=False)\n            (o): Linear(in_features=384, out_features=512, bias=False)\n            (relative_attention_bias): Embedding(32, 6)\n          )\n          (layer_norm): T5LayerNorm()\n          (dropout): Dropout(p=0.1, inplace=False)\n        )\n        (1): T5LayerCrossAttention(\n          (EncDecAttention): T5Attention(\n            (q): Linear(in_features=512, out_features=384, bias=False)\n            (k): Linear(in_features=512, out_features=384, bias=False)\n            (v): Linear(in_features=512, out_features=384, bias=False)\n            (o): Linear(in_features=384, out_features=512, bias=False)\n          )\n          (layer_norm): T5LayerNorm()\n          (dropout): Dropout(p=0.1, inplace=False)\n        )\n        (2): T5LayerFF(\n          (DenseReluDense): T5DenseGatedGeluDense(\n            (wi_0): Linear(in_features=512, out_features=1024, bias=False)\n            (wi_1): Linear(in_features=512, out_features=1024, bias=False)\n            (wo): Linear(in_features=1024, out_features=512, bias=False)\n            (dropout): Dropout(p=0.1, inplace=False)\n          )\n          (layer_norm): T5LayerNorm()\n          (dropout): Dropout(p=0.1, inplace=False)\n        )\n      )\n    )\n    (1): T5Block(\n      (layer): ModuleList(\n        (0): T5LayerSelfAttention(\n          (SelfAttention): T5Attention(\n            (q): Linear(in_features=512, out_features=384, bias=False)\n            (k): Linear(in_features=512, out_features=384, bias=False)\n            (v): Linear(in_features=512, out_features=384, bias=False)\n            (o): Linear(in_features=384, out_features=512, bias=False)\n          )\n          (layer_norm): T5LayerNorm()\n          (dropout): Dropout(p=0.1, inplace=False)\n        )\n        (1): T5LayerCrossAttention(\n          (EncDecAttention): T5Attention(\n            (q): Linear(in_features=512, out_features=384, bias=False)\n            (k): Linear(in_features=512, out_features=384, bias=False)\n            (v): Linear(in_features=512, out_features=384, bias=False)\n            (o): Linear(in_features=384, out_features=512, bias=False)\n          )\n          (layer_norm): T5LayerNorm()\n          (dropout): Dropout(p=0.1, inplace=False)\n        )\n        (2): T5LayerFF(\n          (DenseReluDense): T5DenseGatedGeluDense(\n            (wi_0): Linear(in_features=512, out_features=1024, bias=False)\n            (wi_1): Linear(in_features=512, out_features=1024, bias=False)\n            (wo): Linear(in_features=1024, out_features=512, bias=False)\n            (dropout): Dropout(p=0.1, inplace=False)\n          )\n          (layer_norm): T5LayerNorm()\n          (dropout): Dropout(p=0.1, inplace=False)\n        )\n      )\n    )\n    (2): T5Block(\n      (layer): ModuleList(\n        (0): T5LayerSelfAttention(\n          (SelfAttention): T5Attention(\n            (q): Linear(in_features=512, out_features=384, bias=False)\n            (k): Linear(in_features=512, out_features=384, bias=False)\n            (v): Linear(in_features=512, out_features=384, bias=False)\n            (o): Linear(in_features=384, out_features=512, bias=False)\n          )\n          (layer_norm): T5LayerNorm()\n          (dropout): Dropout(p=0.1, inplace=False)\n        )\n        (1): T5LayerCrossAttention(\n          (EncDecAttention): T5Attention(\n            (q): Linear(in_features=512, out_features=384, bias=False)\n            (k): Linear(in_features=512, out_features=384, bias=False)\n            (v): Linear(in_features=512, out_features=384, bias=False)\n            (o): Linear(in_features=384, out_features=512, bias=False)\n          )\n          (layer_norm): T5LayerNorm()\n          (dropout): Dropout(p=0.1, inplace=False)\n        )\n        (2): T5LayerFF(\n          (DenseReluDense): T5DenseGatedGeluDense(\n            (wi_0): Linear(in_features=512, out_features=1024, bias=False)\n            (wi_1): Linear(in_features=512, out_features=1024, bias=False)\n            (wo): Linear(in_features=1024, out_features=512, bias=False)\n            (dropout): Dropout(p=0.1, inplace=False)\n          )\n          (layer_norm): T5LayerNorm()\n          (dropout): Dropout(p=0.1, inplace=False)\n        )\n      )\n    )\n    (3): T5Block(\n      (layer): ModuleList(\n        (0): T5LayerSelfAttention(\n          (SelfAttention): T5Attention(\n            (q): Linear(in_features=512, out_features=384, bias=False)\n            (k): Linear(in_features=512, out_features=384, bias=False)\n            (v): Linear(in_features=512, out_features=384, bias=False)\n            (o): Linear(in_features=384, out_features=512, bias=False)\n          )\n          (layer_norm): T5LayerNorm()\n          (dropout): Dropout(p=0.1, inplace=False)\n        )\n        (1): T5LayerCrossAttention(\n          (EncDecAttention): T5Attention(\n            (q): Linear(in_features=512, out_features=384, bias=False)\n            (k): Linear(in_features=512, out_features=384, bias=False)\n            (v): Linear(in_features=512, out_features=384, bias=False)\n            (o): Linear(in_features=384, out_features=512, bias=False)\n          )\n          (layer_norm): T5LayerNorm()\n          (dropout): Dropout(p=0.1, inplace=False)\n        )\n        (2): T5LayerFF(\n          (DenseReluDense): T5DenseGatedGeluDense(\n            (wi_0): Linear(in_features=512, out_features=1024, bias=False)\n            (wi_1): Linear(in_features=512, out_features=1024, bias=False)\n            (wo): Linear(in_features=1024, out_features=512, bias=False)\n            (dropout): Dropout(p=0.1, inplace=False)\n          )\n          (layer_norm): T5LayerNorm()\n          (dropout): Dropout(p=0.1, inplace=False)\n        )\n      )\n    )\n    (4): T5Block(\n      (layer): ModuleList(\n        (0): T5LayerSelfAttention(\n          (SelfAttention): T5Attention(\n            (q): Linear(in_features=512, out_features=384, bias=False)\n            (k): Linear(in_features=512, out_features=384, bias=False)\n            (v): Linear(in_features=512, out_features=384, bias=False)\n            (o): Linear(in_features=384, out_features=512, bias=False)\n          )\n          (layer_norm): T5LayerNorm()\n          (dropout): Dropout(p=0.1, inplace=False)\n        )\n        (1): T5LayerCrossAttention(\n          (EncDecAttention): T5Attention(\n            (q): Linear(in_features=512, out_features=384, bias=False)\n            (k): Linear(in_features=512, out_features=384, bias=False)\n            (v): Linear(in_features=512, out_features=384, bias=False)\n            (o): Linear(in_features=384, out_features=512, bias=False)\n          )\n          (layer_norm): T5LayerNorm()\n          (dropout): Dropout(p=0.1, inplace=False)\n        )\n        (2): T5LayerFF(\n          (DenseReluDense): T5DenseGatedGeluDense(\n            (wi_0): Linear(in_features=512, out_features=1024, bias=False)\n            (wi_1): Linear(in_features=512, out_features=1024, bias=False)\n            (wo): Linear(in_features=1024, out_features=512, bias=False)\n            (dropout): Dropout(p=0.1, inplace=False)\n          )\n          (layer_norm): T5LayerNorm()\n          (dropout): Dropout(p=0.1, inplace=False)\n        )\n      )\n    )\n    (5): T5Block(\n      (layer): ModuleList(\n        (0): T5LayerSelfAttention(\n          (SelfAttention): T5Attention(\n            (q): Linear(in_features=512, out_features=384, bias=False)\n            (k): Linear(in_features=512, out_features=384, bias=False)\n            (v): Linear(in_features=512, out_features=384, bias=False)\n            (o): Linear(in_features=384, out_features=512, bias=False)\n          )\n          (layer_norm): T5LayerNorm()\n          (dropout): Dropout(p=0.1, inplace=False)\n        )\n        (1): T5LayerCrossAttention(\n          (EncDecAttention): T5Attention(\n            (q): Linear(in_features=512, out_features=384, bias=False)\n            (k): Linear(in_features=512, out_features=384, bias=False)\n            (v): Linear(in_features=512, out_features=384, bias=False)\n            (o): Linear(in_features=384, out_features=512, bias=False)\n          )\n          (layer_norm): T5LayerNorm()\n          (dropout): Dropout(p=0.1, inplace=False)\n        )\n        (2): T5LayerFF(\n          (DenseReluDense): T5DenseGatedGeluDense(\n            (wi_0): Linear(in_features=512, out_features=1024, bias=False)\n            (wi_1): Linear(in_features=512, out_features=1024, bias=False)\n            (wo): Linear(in_features=1024, out_features=512, bias=False)\n            (dropout): Dropout(p=0.1, inplace=False)\n          )\n          (layer_norm): T5LayerNorm()\n          (dropout): Dropout(p=0.1, inplace=False)\n        )\n      )\n    )\n    (6): T5Block(\n      (layer): ModuleList(\n        (0): T5LayerSelfAttention(\n          (SelfAttention): T5Attention(\n            (q): Linear(in_features=512, out_features=384, bias=False)\n            (k): Linear(in_features=512, out_features=384, bias=False)\n            (v): Linear(in_features=512, out_features=384, bias=False)\n            (o): Linear(in_features=384, out_features=512, bias=False)\n          )\n          (layer_norm): T5LayerNorm()\n          (dropout): Dropout(p=0.1, inplace=False)\n        )\n        (1): T5LayerCrossAttention(\n          (EncDecAttention): T5Attention(\n            (q): Linear(in_features=512, out_features=384, bias=False)\n            (k): Linear(in_features=512, out_features=384, bias=False)\n            (v): Linear(in_features=512, out_features=384, bias=False)\n            (o): Linear(in_features=384, out_features=512, bias=False)\n          )\n          (layer_norm): T5LayerNorm()\n          (dropout): Dropout(p=0.1, inplace=False)\n        )\n        (2): T5LayerFF(\n          (DenseReluDense): T5DenseGatedGeluDense(\n            (wi_0): Linear(in_features=512, out_features=1024, bias=False)\n            (wi_1): Linear(in_features=512, out_features=1024, bias=False)\n            (wo): Linear(in_features=1024, out_features=512, bias=False)\n            (dropout): Dropout(p=0.1, inplace=False)\n          )\n          (layer_norm): T5LayerNorm()\n          (dropout): Dropout(p=0.1, inplace=False)\n        )\n      )\n    )\n    (7): T5Block(\n      (layer): ModuleList(\n        (0): T5LayerSelfAttention(\n          (SelfAttention): T5Attention(\n            (q): Linear(in_features=512, out_features=384, bias=False)\n            (k): Linear(in_features=512, out_features=384, bias=False)\n            (v): Linear(in_features=512, out_features=384, bias=False)\n            (o): Linear(in_features=384, out_features=512, bias=False)\n          )\n          (layer_norm): T5LayerNorm()\n          (dropout): Dropout(p=0.1, inplace=False)\n        )\n        (1): T5LayerCrossAttention(\n          (EncDecAttention): T5Attention(\n            (q): Linear(in_features=512, out_features=384, bias=False)\n            (k): Linear(in_features=512, out_features=384, bias=False)\n            (v): Linear(in_features=512, out_features=384, bias=False)\n            (o): Linear(in_features=384, out_features=512, bias=False)\n          )\n          (layer_norm): T5LayerNorm()\n          (dropout): Dropout(p=0.1, inplace=False)\n        )\n        (2): T5LayerFF(\n          (DenseReluDense): T5DenseGatedGeluDense(\n            (wi_0): Linear(in_features=512, out_features=1024, bias=False)\n            (wi_1): Linear(in_features=512, out_features=1024, bias=False)\n            (wo): Linear(in_features=1024, out_features=512, bias=False)\n            (dropout): Dropout(p=0.1, inplace=False)\n          )\n          (layer_norm): T5LayerNorm()\n          (dropout): Dropout(p=0.1, inplace=False)\n        )\n      )\n    )\n  )\n  (final_layer_norm): T5LayerNorm()\n  (dropout): Dropout(p=0.1, inplace=False)\n)", "parameters": [["embed_tokens.weight", [250100, 512]], ["block.0.layer.0.Sel
…
